…
  batch_size    : 32
  use_deriv_loss: False
  loss_weights  : {'drdP': 0.01, 'drdT': 0.01, 'rho': 1.0}

MLflow run ID: 08d1358e8339403dae962081121c89e5

Loaded scaled data: (111053, 12)
  Train: (88842, 2)  Val: (22211, 2)

Building model...
Model: "model"
_________________________________________________________________
 Layer (type)                Output Shape              Param #   
=================================================================
 input_1 (InputLayer)        [(None, 2)]               0         
                                                                 
 dense (Dense)               (None, 16)                48        
                                                                 
 s_re_lu3 (SReLU3)           (None, 16)                0         
                                                                 
 dense_1 (Dense)             (None, 8)                 136       
                                                                 
 s_re_lu3_1 (SReLU3)         (None, 8)                 0         
                                                                 
 dense_2 (Dense)             (None, 4)                 36        
                                                                 
 s_re_lu3_2 (SReLU3)         (None, 4)                 0         
                                                                 
 dense_3 (Dense)             (None, 1)                 5         
                                                                 
=================================================================
Total params: 225 (900.00 Byte)
Trainable params: 225 (900.00 Byte)
Non-trainable params: 0 (0.00 Byte)
_________________________________________________________________

Training (plain MAE)...
Epoch 1/10
   1/2777 [..............................] - ETA: 2
…
